ML/best_mlp_model.pth (torch, 365652 bytes, 8 tensors)

network.0.weight f4 [128, 1]
000000 50 00 6c be 8c c2 eb be 64 32 72 3c 74 6c 08 3f
       -0.23046994 -0.46046865 0.014782522 0.53290486
000010 75 97 3d 3f 6b 3a e2 3e 2f 4b 5d 3f 48 fe 52 bf
       0.7405923 0.44185194 0.86442846 -0.8241925
000020 06 80 ed bd 30 6f 02 3e 4f dd 48 bf ec 79 32 3f
       -0.11596684 0.12737727 -0.7846269 0.6971729
000030 45 b2 d9 3e 80 42 72 be 43 f0 4d 3f 29 cd fd be
       0.4251882 -0.2365818 0.80444735 -0.49570587
000040 6e fd d6 bc c3 df c9 be c4 31 fe be eb d4 33 bf
       -0.026243892 -0.3942853 -0.49647343 -0.7024676
000050 d0 88 33 bf 39 60 83 be 8c 0b 2a 3f 3c ae 63 3e
       -0.70130634 -0.2565935 0.6642387 0.22234434
000060 22 d7 c2 be fc 84 be be e9 7b 2e bf 05 59 9d 3e
       -0.38054758 -0.37210834 -0.6815782 0.3073198
000070 a7 ca e0 3e c9 1d 68 bf 12 aa 64 3f a7 94 58 3f
       0.4390461 -0.9067045 0.89322007 0.84601825
000080 f3 13 90 bd 50 c4 b4 be f9 89 76 3e 9d c4 83 3e
       -0.07035055 -0.35306025 0.2407607 0.25735942
000090 eb 7a 14 3f fc df aa be 2e e6 16 3f 66 9c 97 3e
       0.5800006 -0.33374012 0.58944976 0.2961151
0000a0 a4 f2 60 bf 40 f5 3c bf 65 a3 57 3f f0 f0 80 3e
       -0.8787024 -0.7381172 0.84233695 0.2518382
0000b0 2a 34 dd 3e 80 7a bb 3e 9a 8a 2c 3e 27 0f f8 3e
       0.4320386 0.36616898 0.16849747 0.4844906
0000c0 ad e0 5e bf df ca 18 bf 63 58 b4 bc 43 ae a5 3e
       -0.8706158 -0.59684557 -0.022014802 0.32359514
0000d0 3e 76 39 3e e9 c6 90 be 72 d8 e6 3c b3 19 86 3c
       0.18111512 -0.28276756 0.028179381 0.016369676
0000e0 2c f5 45 3f 2c c7 08 bd be 31 5c 3f fe 77 55 3f
       0.7732723 -0.03339307 0.860134 0.8338622
0000f0 ca e1 12 bd 46 d3 2c bf f9 3e a6 3d 2c 64 82 bd
       -0.03585986 -0.6750988 0.0811748 -0.063667625
000100 ee 2d 15 3e 84 ef 5b be 1c 97 18 bf dc 7e 2b bf
       0.14568302 -0.21478087 -0.59605575 -0.6699045
000110 8f ec b2 be fb 81 1b 3e ba 81 08 bd 68 28 02 bf
       -0.34946105 0.15186302 -0.033326842 -0.50842905
000120 a7 7f 4a 3f c5 cb 1d bf 9e 35 e4 be 1a 92 63 be
       0.7910103 -0.6163905 -0.44572157 -0.22223702
000130 fe c1 6f 3f 22 54 0c 3f e6 a1 3b 3f 82 9a b2 3d
       0.93655384 0.54815876 0.7329391 0.08720876
000140 db 87 3e bf 2d 06 03 bf 26 99 40 bf fe ba 93 3e
       -0.7442605 -0.511813 -0.75233686 0.288536
000150 af 08 8d be 22 a5 94 be 74 71 5c 3e 0d 34 04 3f
       -0.27545688 -0.29032236 0.21527654 0.51641923
000160 ba c6 e1 3e 80 67 87 be 60 b4 8b 3e f5 ac 17 bf
       0.4409693 -0.26446152 0.27286053 -0.59248286
000170 d3 a8 97 be 1a 1a 47 bf dc fd 3e bf ce 45 63 bf
       -0.2962099 -0.777742 -0.7460611 -0.8877839
000180 21 12 72 3f 3b d6 a6 be c1 ca bd 3e d5 fb e0 be
       0.9455891 -0.3258532 0.3706875 -0.43942133
000190 40 54 00 bf cc 16 1b bf 71 7e 32 3f ea 40 9c 3c
       -0.50128555 -0.6058166 0.69724184 0.019073922
0001a0 04 64 78 bf 87 30 08 3f 00 68 1e 3e 96 fc 0f bf
       -0.9702761 0.53199047 0.1546936 -0.5624479
0001b0 bc ee 01 bf f9 f7 10 bd ab 5f ee bd 61 db 2f 3e
       -0.50754905 -0.035392735 -0.11639341 0.1717353
0001c0 9d d9 f4 be a8 50 eb be 07 8b e8 3e 6e d6 87 3e
       -0.47822276 -0.45959973 0.4541857 0.26530784
0001d0 40 72 0c bf 60 66 0b bf 10 b0 72 3c fd 77 0d 3e
       -0.5486183 -0.54453087 0.014812484 0.13815303
0001e0 50 96 7d be 5e 62 5e 3f df 0d b4 3d 1a 61 62 bf
       -0.24764371 0.86868846 0.08791708 -0.88429415
0001f0 d0 29 10 bd c9 8b 04 bf 0e 73 f2 3e e2 a8 fe bb
       -0.035196126 -0.51775795 0.47353405 -0.0077715972

network.0.bias f4 [128]
000000 b9 74 58 bf 27 62 a3 be ec a4 24 3f ab 6b ea be
       -0.84553105 -0.31910822 0.6431415 -0.4578527
000010 a3 c4 1a 3f 5a fa ca be 3e 0d fb be 69 cb 35 bf
       0.60456294 -0.39644128 -0.4903354 -0.71013504
000020 56 90 c7 bd fe 62 5d bf 47 db b9 bc 86 0f 06 3d
       -0.09744327 -0.86479175 -0.022687567 0.032729648
000030 cd 4a 22 3f c7 fa 3e bf 79 5e 61 bf b2 fb f7 3e
       0.63395387 -0.74601406 -0.8803478 0.48434216
000040 7f e2 bf bd e7 5c ff be ab df a7 3e 40 a0 d2 3b
       -0.093693726 -0.49875566 0.32787833 0.0064277947
000050 fa be 6f 3e db 77 1a bf 4b a6 6f 3f fd 28 9e bd
       0.23412696 -0.60339135 0.9361312 -0.07722662
000060 fe 20 15 bf 8b f7 7b bf a1 db 30 3f 12 e3 d2 3e
       -0.5825347 -0.98424596 0.6908513 0.41188866
000070 30 81 16 be a8 14 47 be 0d 54 6b 3f 7a 0f 0f 3f
       -0.14697719 -0.19441473 0.91925126 0.5588299
000080 4c 50 63 3f 2e 48 94 3e 1a 01 b7 be 56 aa a2 bd
       0.887944 0.2896132 -0.35743028 -0.07942645
000090 e7 65 72 3f 7a 8c c5 3e 6d d4 ad bd ac b0 3e 3f
       0.9468674 0.38583738 -0.084877826 0.7448833
0000a0 63 c3 b0 3e 76 5c 49 3f 15 6f e7 3e bd 31 3c bf
       0.34524068 0.7865671 0.45201936 -0.73513395
0000b0 2c 95 e2 be 5b fe 03 bf 01 22 b2 bc 8b e5 db 3e
       -0.44254434 -0.5155999 -0.02174473 0.42948565
0000c0 92 8c b2 be cc d4 f8 3d a9 7a 7a be d8 e2 5e 3f
       -0.34872872 0.12149963 -0.24460854 0.87064886
0000d0 b6 ff 1c 3f ce 2e 55 3f a2 e9 80 be c9 f2 f3 3e
       0.61327684 0.83274543 -0.25178248 0.47646168
0000e0 fd 98 a9 be d0 75 d6 3e 58 62 60 be fc 17 19 3e
       -0.33124533 0.4188676 -0.21912515 0.14950556
0000f0 3e b3 43 3f 5b d0 71 bf e7 58 84 3f 3a 9c 22 bf
       0.76445377 -0.9445855 1.0339631 -0.6351963
000100 18 a5 7c be 5d 5f 14 3e 95 2f 1c bf cf 39 32 bf
       -0.24672353 0.14489503 -0.61010104 -0.6961946
000110 51 eb de be e1 f0 6c bf 30 8e fc be 42 04 e5 3e
       -0.43538907 -0.9255505 -0.4932723 0.4472981
000120 5d e7 8e 3b ea a9 de 3d 7c 6d e9 3e 05 32 e2 3e
       0.0043610767 0.10872252 0.45591342 0.44178787
000130 3e 8a 4c be f6 a6 33 3f f0 ea 35 3f f7 df 57 bf
       -0.1997461 0.7017664 0.7106161 -0.8432612
000140 69 a1 4d 3f 1d 49 59 bf 3f 56 81 bf cf e9 4f be
       0.8032442 -0.84877187 -1.0104445 -0.20304035
000150 28 dd 27 bf 35 c2 d8 be fa 25 b6 3d 5d 85 74 3f
       -0.6557183 -0.42335668 0.08893962 0.95515996
000160 cb f9 c5 3e ff 34 15 be e2 b8 c6 3d c9 6a bf be
       0.3866714 -0.14570998 0.09703232 -0.37386158
000170 27 13 6c bf 66 e1 10 bf ef 86 5f be 87 5d 40 bf
       -0.92216724 -0.5659393 -0.21828817 -0.7514271
000180 8b c6 55 bf b8 7f 6e 3e 9a f8 7c bf a5 30 14 3f
       -0.8350608 0.23290908 -0.98816836 0.57886726
000190 2b 21 81 3f 61 e4 20 bf c3 c7 a8 bd 88 12 fe be
       1.0088247 -0.6284848 -0.082412265 -0.49623513
0001a0 64 46 35 be 1a bf 85 3d f1 26 8b be f4 22 20 be
       -0.17702633 0.0653059 -0.27178147 -0.15638334
0001b0 a1 7c 25 3f 0e 1a 31 bf 51 d9 e2 3d c1 74 c5 3e
       0.64643294 -0.6918038 0.11076606 0.3856564
0001c0 5a 62 6e bf 54 58 45 3f f5 78 e1 be cd 4a 80 3e
       -0.9311882 0.77087903 -0.44037595 0.25057068
0001d0 e3 24 2a 3f 95 b5 3b bf a9 a4 63 bf ac 11 90 3e
       0.66462535 -0.7332395 -0.88923126 0.28138483
0001e0 21 5a 76 3f c8 79 85 bd de 42 08 bf 7d e6 79 3f
       0.96231276 -0.065173686 -0.5322703 0.9761732
0001f0 c5 0e 73 bf bd fc 52 3f 68 27 3d 3f 03 1b 66 3f
       -0.9494441 0.824169 0.73888254 0.89884967

network.2.weight f4 [256, 128]
000000 4e 24 c6 3d 30 b1 c0 3d c1 45 2d 3d 8f a3 08 bd
       0.09674893 0.09408796 0.04230285 -0.033359107
000010 1f 00 a3 bd b0 2c 96 3c 13 0c 9d bb 48 62 00 3c
       -0.079590075 0.018331856 -0.004792699 0.007835932
000020 90 61 56 3b ff 2f 0b bd 46 14 9b bd a1 8d 8e 3d
       0.003271196 -0.03398132 -0.07572226 0.06960607
000030 af b9 41 bd 0e 2f 11 3d 36 e3 83 bd fa d2 21 3d
       -0.047296222 0.035445265 -0.064398214 0.039507844
000040 9e 7e b4 3d b5 5e fe 3c 01 f8 35 3d cf 06 a2 bc
       0.08813213 0.03105102 0.044425968 -0.019778637
000050 ef be 0f 3d b7 3d 5b 3d 84 f7 ed bc 19 38 84 3c
       0.035094198 0.053525653 -0.029048689 0.01614003
000060 fb 7d c7 3d 43 4e c5 bc 35 6b 6e 3d db fa b8 bd
       0.09740826 -0.02408517 0.05820771 -0.09032222
000070 42 52 95 bd db c2 59 bd e6 4b 99 3d 7e 2a d4 bc
       -0.0729108 -0.053164344 0.074851796 -0.025899168
000080 fb b0 c9 bd 80 a8 e2 3b c5 5e 24 bd 34 9b 74 bd
       -0.098482095 0.0069170594 -0.04012944 -0.059718326
000090 fc 80 15 bd f0 ac 51 bd 82 88 4f 3b 6b dc ac 3c
       -0.036499962 -0.051190317 0.0031667058 0.021101197
0000a0 b8 ff 8b bd 9c f0 af bd 0c bb a0 bc fc ad 08 3d
       -0.06835884 -0.085908145 -0.01962044 0.03336905
0000b0 02 0b 29 3b 2f 73 5f bd 62 b2 dd 3c 95 3e 84 bc
       0.0025793915 -0.054553207 0.027062599 -0.016143123
0000c0 a1 8b 85 bc 02 91 75 bc b8 fe 0b bc b6 81 83 bc
       -0.016301932 -0.014988186 -0.008544616 -0.016053062
0000d0 f1 b5 b4 3c 38 5e 84 bc 09 e3 99 3d cf 66 8b bd
       0.022059413 -0.016158208 0.07514007 -0.068067186
0000e0 56 16 88 3d ea 81 28 3d fe 3d 2f bd e5 05 3d 3d
       0.06644885 0.04113952 -0.04278373 0.0461482
0000f0 39 ad 85 bc 59 ba 4d bb a6 da 4b 3d 80 d3 0a bd
       -0.01631795 -0.003139159 0.049769066 -0.03389311
000100 e6 b9 8c 3d b8 24 3b bc 0b eb 7c 3d 5f b3 68 3d
       0.06871395 -0.011422329 0.061747592 0.056811687
000110 d6 65 1f bd ca e2 9e bd bb dc 1e bc da d9 b5 bb
       -0.038915478 -0.077581 -0.009696181 -0.0055496516
000120 a3 08 58 bc b9 ee 66 3d 96 93 87 bd a9 a1 c7 bc
       -0.013185653 0.056380007 -0.06619947 -0.024369078
000130 8d 19 d3 bc 47 bd 59 3d 03 4f 82 3b 19 22 c4 3d
       -0.02576902 0.053159025 0.003976704 0.09576816
000140 ca d7 8b bd 51 c0 53 3b e3 0e 23 ba f9 f8 84 bd
       -0.06828268 0.0032310674 -0.0006220175 -0.064928
000150 c3 50 9c bb 29 39 6a bd f9 ca 34 3d 8b 3d 49 3d
       -0.0047703697 -0.05718342 0.044138882 0.049130958
000160 71 79 82 bd 1d ee 0d 3b ef fd c1 bd 34 a7 ae 3d
       -0.06370819 0.002165682 -0.09472262 0.08527985
000170 55 ad a8 3b 6d e7 52 ba 73 44 01 3c 5a 6d cb bc
       0.005147616 -0.00080453494 0.007889855 -0.024832416
000180 63 60 6d 3d ae 88 15 3b 99 86 80 3d c4 8b a9 bd
       0.05795325 0.0022817063 0.062756725 -0.08278611
000190 fb 00 7b 3d 55 55 80 3c b7 0f d4 bb e5 76 19 3d
       0.061280232 0.01566569 -0.0064716 0.037466902
0001a0 a6 37 a1 bb 9d 99 bd bd 3f d8 2b 3d e4 70 a0 bb
       -0.004919964 -0.09257815 0.041954275 -0.00489627
0001b0 fd 13 58 bd db 3e 71 bd 5b 55 d1 bc 50 5c 10 3d
       -0.052753437 -0.058897834 -0.025553396 0.035244286
0001c0 d0 1d 15 bc 2c 60 8d 3c a8 17 a8 bc be 17 7d bc
       -0.009101346 0.017257772 -0.020519093 -0.015447555
0001d0 8f 6c d2 3c 2f d7 9b bd c3 a5 40 3c f7 6c 23 bd
       0.02568653 -0.076094024 0.011758271 -0.03989884
0001e0 24 5c 59 3d b7 ed c8 3c c5 cb 0b 3c 4c 22 ff bb
       0.053066388 0.024527414 0.008532469 -0.007786071
0001f0 59 65 8b bd 56 30 d0 bc 42 ca a2 bd f3 e8 9d bd
       -0.0680644 -0.025413673 -0.07948734 -0.07710447
000200 fd 81 de 3d 55 db 98 3d 18 21 af bd bc 73 11 3c
       0.10864637 0.07463709 -0.08551234 0.008877691
000210 1a 8a cb bd 84 1f 33 3d 50 29 c8 3b c1 3b 22 bd
       -0.0993845 0.043731228 0.0061084405 -0.039607767
000220 1f c4 04 bd 4e a6 35 3d 71 ce 07 bc 49 9c c1 bd
       -0.0324136 0.044348054 -0.008288966 -0.09453637
000230 49 86 41 3c fe 23 7a 3d 4d 36 8a bd 99 4c 29 3c
       0.011811801 0.06106948 -0.06748638 0.010333204
000240 96 bf a1 3d fd de 59 3d b5 94 e1 bc fb 6b 48 3c
       0.0789787 0.053191174 -0.02753673 0.012232776
000250 e7 c8 a2 bd e1 42 e4 3d 3d a5 a9 bc f8 b0 af bd
       -0.07948475 0.11145569 -0.020708675 -0.08578676
000260 a7 4c ba 3d 79 5b 64 3d 25 64 47 3c b1 de 0d 3d
       0.090966515 0.055751298 0.012169872 0.034636203
000270 a2 c9 19 3d 2a 72 0a bd 14 72 9e bd 9d d2 8d bd
       0.037545808 -0.03380028 -0.077366024 -0.06924937
000280 d6 59 5f bd 78 82 20 3d 1b f3 d4 3c c2 d8 95 3c
       -0.054529034 0.039186925 0.025994828 0.018291835
000290 3d c4 d0 3b 70 56 16 3d e5 5d 6a 3d 79 61 e1 bd
       0.0063710497 0.036703527 0.05721845 -0.110049196
0002a0 48 01 a6 bd 27 90 78 bc 04 da b2 3c 0d 87 71 bd
       -0.08105713 -0.015171087 0.021832474 -0.058966685
0002b0 58 80 c1 3c 25 83 b8 bd 43 1d d1 bb 8d 16 92 bd
       0.02362077 -0.09009389 -0.006381662 -0.071332075
0002c0 e1 b5 83 bd 3f 88 17 bd 72 f0 9a bd 62 ba e8 bd
       -0.06431175 -0.03699517 -0.075653926 -0.11363675
0002d0 54 4f 90 3c 94 ca bc bc f3 01 19 bc 82 4d 32 3d
       0.017615952 -0.023045816 -0.009338844 0.04353095
0002e0 a5 a4 c1 bc 72 17 bc 3c fb 58 28 3c 1b 6f 40 bd
       -0.023638079 0.022960398 0.010275121 -0.04698096
0002f0 5e aa 1c bd 61 e6 88 3d ea b2 96 bd 83 76 85 3d
       -0.038248412 0.06684566 -0.07358344 0.06516745
000300 a2 be 38 bd 1b ef 64 3d d5 cf 3e bc 9e 29 7e bc
       -0.045103677 0.05589209 -0.011646231 -0.015512852
000310 34 87 e1 bc 56 c5 86 bd e7 d6 79 bd ee 15 46 3c
       -0.02753029 -0.065806076 -0.060995962 0.012090189
000320 ea a5 42 bd eb 93 66 bd e6 30 4b 3d b3 b6 89 3d
       -0.04752151 -0.05629341 0.04960718 0.067243
000330 ea 99 ad 3d ae 13 82 bd 4e 5e 50 3d ce 98 9c 3c
       0.084766224 -0.0635141 0.050871186 0.019115832
000340 fe ff 7c 3d 8e 84 92 3c 83 38 a5 3c 9d b5 8a 3d
       0.06176757 0.017885473 0.020168548 0.06772921
000350 29 09 bf 3b 59 cc 4c 3d 34 8b b9 bd 37 7f 5f bd
       0.0058299494 0.04999957 -0.09059754 -0.05456468
000360 b9 a1 87 bd 2f 66 90 3d 6e dc 02 bd b1 d2 8b 3d
       -0.06622643 0.0705074 -0.0319485 0.068272956
000370 b9 d5 c3 3d 44 a5 20 bc 9a df 53 3c e8 8d 56 bd
       0.09562249 -0.009805027 0.012931729 -0.052381426
000380 59 3d 87 3d 3b 87 18 3d 00 75 aa bd 88 ad 93 3c
       0.06603498 0.03723834 -0.08323097 0.018027082
000390 39 05 0d 3d 06 64 e9 3c 07 55 06 bd f8 00 6c bc
       0.03442881 0.028490078 -0.032795932 -0.014404528
0003a0 15 1c 80 3d 41 84 04 3b 69 02 be 3c 30 20 5c 3d
       0.06255356 0.002022043 0.023194509 0.053741634
0003b0 4c 2e 4b 3d 9d ba a7 3d c6 f6 b1 3d 04 57 68 3d
       0.0496047 0.081898905 0.086896464 0.05672361
0003c0 cc 94 ab 3d e0 0e ab 3d c1 fd 42 bd f3 e1 33 3d
       0.0837799 0.083524466 -0.04760528 0.043916654
0003d0 ad df 6c bd 5d 3d a6 3d cf 84 12 bd 36 0b 3d bd
       -0.0578305 0.08117173 -0.035771187 -0.04615327
0003e0 da ec 1c 3d fc 1e 81 ba 3d 94 83 3c 8d e1 44 bd
       0.038311817 -0.0009851153 0.016061896 -0.048066664
0003f0 24 1b 94 ba 7c 8c 8d bd 5f 3e dc bd e7 b7 13 bd
       -0.0011299592 -0.06911561 -0.10754084 -0.036064055

network.2.bias f4 [256]
000000 8a 62 2c bd 1f 87 ae bd 26 21 79 3d 86 aa a5 3d
       -0.04208616 -0.08521866 0.06082263 0.080891654
000010 5c 60 4b 3d 3f ba 2d 3d 93 de ac 3d a5 14 a6 3c
       0.049652442 0.042413946 0.0844089 0.020273516
000020 75 d4 64 3c d9 2d 08 3d 12 34 e5 3c b3 8c 92 3d
       0.013966669 0.03324685 0.02797893 0.071557425
000030 da 09 25 b8 ec 77 2c bd 85 c4 c4 bb fa a9 b2 3d
       -3.934824e-05 -0.042106554 -0.0060048723 0.08723827
000040 ac 63 2e bd 25 e8 91 3d 74 af 98 bd f4 ba 25 bd
       -0.042575523 0.07124356 -0.0745534 -0.040461496
000050 d2 97 96 3c ef 49 d9 bc 13 38 da bd 9e b1 90 3d
       0.01838294 -0.026524512 -0.106552266 0.07065128
000060 0c 24 0f bd e3 23 10 bd e8 a0 93 bd 1f d1 64 bd
       -0.034946486 -0.035190474 -0.07208425 -0.055863496
000070 a5 90 63 3d 0f 17 f7 bc c5 17 1e 3c b4 a0 b9 ba
       0.055557866 -0.030162362 0.009649222 -0.0014162273
000080 6f 4b c1 3c e9 c8 1c 3d ce ec 0c bd c4 86 43 bd
       0.02359554 0.03827754 -0.034405522 -0.047735944
000090 fd 3e c5 bd 30 7a 27 3d b7 1a 56 3d dd 1f bf bd
       -0.09631155 0.04088801 0.05227157 -0.09332249
0000a0 3a b3 ac bc 84 5e 9c 3d e9 44 ff 3c 45 72 b9 3a
       -0.021081556 0.07635215 0.031160789 0.0014148435
0000b0 fa 65 6f 3b 0c 58 b6 3b 19 34 b7 3d fa 6a 94 bc
       0.0036529289 0.005564695 0.08945484 -0.018117417
0000c0 d1 58 9c 3d ae b7 b7 bd fe 61 6f 3b f2 9d fb bc
       0.07634128 -0.08970581 0.0036526914 -0.030714963
0000d0 ca 56 4d bc 91 02 64 bd 67 80 f7 bc 34 22 96 bd
       -0.012532899 -0.05566651 -0.030212594 -0.073307425
0000e0 0d 0b 8c bd 55 58 44 bd 23 e0 ff 3d 6e 1e 3f bc
       -0.06838045 -0.047935802 0.124939226 -0.01166497
0000f0 78 04 7f bd a4 cb 83 bd 98 59 6d bd b7 b1 a3 bc
       -0.06226012 -0.06435326 -0.05794677 -0.019982202
000100 1f f6 8d 3d 13 5f 86 bd 82 bc a5 bc e2 88 91 3d
       0.069317095 -0.06561103 -0.02023149 0.071061864
000110 25 79 ee 3c 92 66 2e bd 19 e6 ba bc 62 22 9b bd
       0.0291105 -0.042578287 -0.022814797 -0.075749174
000120 db b0 97 3d 13 14 74 3d 0d 27 c0 3c 2a 3a 2a bd
       0.074067794 0.059589457 0.02345612 -0.041559376
000130 e9 03 36 3c 5b b4 fe 3c ff 32 07 3d 00 0a c7 3c
       0.011109331 0.03109186 0.033007618 0.02429676
000140 b7 63 c6 3d 45 d3 9c bd 9a 9f a0 bd e1 d6 b7 bc
       0.09686988 -0.07657484 -0.078429416 -0.02244133
000150 ac 51 e2 3c e5 18 7c 3d e4 4b c2 bc 74 6b 83 bd
       0.027626835 0.06154718 -0.023717828 -0.064169794
000160 ae 23 c4 bd e4 d4 25 bb a6 34 60 3d 61 57 b5 3d
       -0.09577118 -0.0025303895 0.05473771 0.08854557
000170 d0 7e 97 3d be b2 56 bd 50 b2 0c 3c f9 e2 c7 bd
       0.073972344 -0.052416556 0.008587435 -0.097600885
000180 2e 72 0e 3d cb 8b 2c bc dd db 77 bb 62 c6 ac 3d
       0.03477686 -0.010531376 -0.0037820258 0.08436276
000190 78 b4 04 bc c8 d6 02 3c 3a c5 2e 3c 37 4a f9 3c
       -0.008099668 0.007985778 0.01066714 0.030430896
0001a0 8f ea 20 3d 89 62 b8 bd 50 66 9c 3b 4f eb c6 3c
       0.039286193 -0.09003169 0.004772939 0.024282126
0001b0 3c 68 c2 3d b9 b3 31 bc c2 c1 6f bd b2 96 94 3c
       0.094925374 -0.010846072 -0.05853439 0.018138263
0001c0 c8 aa a0 3d 4a e0 08 3d 4e 71 b4 bc 1a e2 1d bd
       0.07845074 0.033417024 -0.022026684 -0.038545705
0001d0 71 8b d7 bd a1 49 aa 3d cf 77 66 bd 14 8a 27 3d
       -0.10524643 0.08314825 -0.056266602 0.040903166
0001e0 2c 67 2a bd 66 40 aa bc 85 f5 4a bd 7d 7c da 3c
       -0.0416023 -0.02078266 -0.049550552 0.026670689
0001f0 fb f0 a5 bd c2 ca 64 bc f4 6a 81 3d 47 ff aa 3c
       -0.08102604 -0.013964357 0.06319228 0.020873679
000200 2d d0 07 bd b8 cb 23 bc d1 35 34 bd 3c 8b 42 3d
       -0.033157516 -0.009997301 -0.043996636 0.047496065
000210 ba 35 26 3d 34 e6 75 bd 43 9b 8a 3d 20 ba a1 bc
       0.04057858 -0.060033992 0.06767895 -0.019742072
000220 e1 6f cd bd 7f ae 87 3d f1 46 de bd 06 c6 dd 3c
       -0.10031105 0.06625079 -0.10853375 0.027071964
000230 49 90 5c 3d 8a 51 66 bd 2c d3 2e 3b 2d 87 85 bd
       0.05384854 -0.056230105 0.0026676161 -0.06519923
000240 13 f3 ba bd 8a bc 96 3d 94 3f c9 bb 8f e2 eb bb
       -0.09128394 0.0736018 -0.0061416123 -0.0071986387
000250 35 5b b2 bc 07 11 71 bd 2b 05 82 3d bd 38 bf bd
       -0.021772007 -0.05885413 0.06348642 -0.09336994
000260 63 f2 94 3d f1 f8 aa bc ec 9e 2b bd 4d f3 59 bd
       0.07272794 -0.020870658 -0.041899607 -0.053210545
000270 03 d0 7b bd a2 e8 1d 3d fe bd 13 bd b0 32 9e 3d
       -0.061477672 0.038551934 -0.036069863 0.077245116
000280 c5 cd 95 bd fb 62 35 bd df d8 49 3d 25 2e ab 3d
       -0.07314638 -0.04428385 0.04927909 0.08358411
000290 f9 4d 5d b9 25 59 f0 3d 0e c7 b6 3c 6c 90 8e 3d
       -0.0002110525 0.11735753 0.022311714 0.0696114
0002a0 4b 0c bf 3d 9b dc 3c 3d e1 eb b4 bb 61 70 ce 3d
       0.093285166 0.046108823 -0.005521283 0.10080028
0002b0 64 a3 b8 bd 12 bb bf 3d ab 2f c7 bd 00 12 88 3d
       -0.09015539 0.09361853 -0.09725889 0.06644058
0002c0 19 e1 c6 3b 4d 64 54 3d 25 b4 83 3d 4f e5 94 3d
       0.006069314 0.051853467 0.06430844 0.072703
0002d0 54 12 52 bd 03 86 32 bd 11 a3 83 bd 3f 5a 8d 3c
       -0.05128701 -0.043584835 -0.06427587 0.017254947
0002e0 77 a3 85 3c 65 ec 43 bb e8 ba 98 3c 37 83 19 3d
       0.016313298 -0.002989554 0.018643811 0.03747865
0002f0 85 64 1a bd 98 e2 18 bd f1 ac cb bc f7 f0 ed 3c
       -0.03769352 -0.03732547 -0.024862738 0.029045565
000300 b9 8d 19 3d 8f ba 48 3c 9c 5d 81 3d 1f 6a ee 3d
       0.037488673 0.01225151 0.06316683 0.11641335
000310 46 4d 98 3c 06 6b 81 3d 06 a8 a0 3d a7 54 40 3d
       0.018591534 0.06319241 0.07844548 0.04695573
000320 9a a2 47 3d 86 df d3 3d bc 94 48 3d 78 71 44 bd
       0.048739053 0.10345368 0.04896997 -0.047959775
000330 fa 7d 89 bd 4b c7 d1 bd 46 6a ab 3d 3c 20 3d bd
       -0.06713481 -0.1024309 0.083698794 -0.04617332
000340 df b1 2b 3c 83 8b 53 bd 1d 6d fb bc 70 6d 3b bd
       0.0104794195 -0.05164672 -0.030691678 -0.045758665
000350 36 73 87 bd 07 fb 80 bd ad 6a 9c 3d ab df 51 ba
       -0.066137716 -0.0629788 0.07637534 -0.00080060464
000360 fc 74 57 3c 8f 98 2e bd 22 1b 0c bd 1b ee 3e bd
       0.01315045 -0.04262596 -0.034205563 -0.046613794
000370 c0 57 ef 3c e0 84 9b 3a 6c 58 27 3d 28 bb ba 3d
       0.029216647 0.0011865161 0.04085581 0.091177285
000380 15 90 5d bc 0e 32 49 bd 67 70 77 3b 99 1b 78 3c
       -0.013523121 -0.04912 0.0037756206 0.015143299
000390 d7 38 69 bd ba 6f c6 bd 55 dc 63 3d 92 fc b2 3d
       -0.056938972 -0.09689279 0.055630047 0.0873958
0003a0 19 dc c7 3d d1 1c 55 3d c9 68 94 3c 89 71 40 3d
       0.09758777 0.052029435 0.018116372 0.046983276
0003b0 8e b3 e1 bc 77 47 8c bc f4 c0 2a 3c 63 e0 c1 bc
       -0.027551439 -0.01712392 0.01042198 -0.023666566
0003c0 a0 a8 a0 bc d0 e3 9f 3d 75 ea b4 bc ce ed 0a 3d
       -0.019611657 0.07807124 -0.022084454 0.033918194
0003d0 87 ef c2 bb 74 aa 17 3d f8 fa 91 bc a4 3f 61 bd
       -0.005948964 0.03702779 -0.017819867 -0.054992333
0003e0 0b 6e 97 3d 1f 39 7d bd fd 8d b0 3d 02 5f 84 bb
       0.07394036 -0.061822053 0.08620832 -0.004039646
0003f0 e7 32 5d bd 27 5b 8d bc f0 f7 00 bd 3e db 95 bd
       -0.054003622 -0.017255379 -0.03148645 -0.07317208

network.4.weight f4 [128, 256]
000000 99 a0 98 3c 1f f3 b6 3c 86 d6 df 3c 8c 8a 82 3d
       0.018631266 0.022332726 0.027323972 0.06374082
000010 4a d5 09 3c 29 c9 4a 3d 18 1e f5 3c 17 d9 21 3d
       0.0084126685 0.049508248 0.029921576 0.039513674
000020 9b a5 db bb cc 80 73 bd 09 eb 4b bd e8 e7 13 bc
       -0.0067030913 -0.059449002 -0.049784694 -0.009027459
000030 8a 1d 88 bd 67 c3 6d bd 40 b5 b8 bc d9 7f 6d bc
       -0.06646259 -0.05804768 -0.022547364 -0.014495813
000040 33 23 23 3c 44 c1 72 bd 7f be 80 3b bf a4 52 bc
       0.009957123 -0.059266344 0.003928959 -0.012856661
000050 54 34 d9 3c 30 55 3f 3c 87 89 28 bc aa 2c 03 3d
       0.02651421 0.011678025 -0.010286695 0.032025017
000060 29 b7 45 3b 7f ae 04 bd 42 68 4a 3d cc 01 e6 bc
       0.0030168986 -0.032392975 0.049415834 -0.028077029
000070 9f 1c 67 bb f7 21 03 bd b8 c5 3b bc 02 92 f8 bc
       -0.0035264862 -0.032014813 -0.011460714 -0.03034306
000080 74 d0 9b 3b c7 3c fe bc d8 f3 39 3c 80 01 8b bd
       0.004755074 -0.03103484 0.011349641 -0.067873955
000090 f0 42 5f 3d 3d e4 88 bb db b3 38 bd c4 fd ba ba
       0.054507196 -0.0041775987 -0.0450934 -0.0014266302
0000a0 57 88 24 3d 0b 05 53 3d 42 92 02 bc e0 1b 36 3d
       0.040169086 0.05151848 -0.007969441 0.044460177
0000b0 9b 49 26 3d 22 c9 1e bb 2a 2c 46 bc dc f9 bf 3c
       0.04059754 -0.0024228771 -0.0120954905 0.023434572
0000c0 8e ce 01 bd 77 bc 53 3b c2 84 aa 3c ce 88 50 3c
       -0.031691127 0.0032308379 0.020815257 0.012727929
0000d0 b0 30 41 3d 9b 07 20 bc 69 41 37 bd 99 c4 5d 3c
       0.047165573 -0.009767438 -0.044740114 0.013535642
0000e0 4c fa 8f 3c be 39 f6 bc ad 76 fd 3c d8 f5 4d bd
       0.017575406 -0.03005683 0.030940378 -0.050283283
0000f0 21 f9 35 3d 2b bc cd 3c 65 f2 01 bd f4 ea ec bc
       0.04442704 0.02511414 -0.031725306 -0.028920628
000100 19 9d da bc fa 62 89 bd 6c c3 3e bd 45 99 60 3d
       -0.026686238 -0.067083314 -0.046573088 0.05483367
000110 ca c7 22 3d 94 05 4f 3d 0b c3 c1 bc da a9 fb bb
       0.039741315 0.05054243 -0.023652574 -0.00768016
000120 53 c6 c0 3c 4b 82 bf 3c cf 4d 0e 3c dd 8b 94 bc
       0.023532068 0.023377558 0.008685543 -0.018133098
000130 8e 7d 9c bc 21 7f 06 3d 65 95 80 3c 3d 2f 23 bd
       -0.019102838 0.032836083 0.015696237 -0.03983997
000140 d8 64 fa 3c 64 40 cc bc 6f a8 43 bd 90 29 40 bd
       0.030565664 -0.024933048 -0.047768053 -0.046914637
000150 74 b2 48 3d f6 9b 74 3d 25 1d 02 ba fa b3 28 bc
       0.04899831 0.05971905 -0.00049634493 -0.010296816
000160 07 56 2b 3d 35 18 3f 3c ca fe 6d 3b b1 14 88 bc
       0.04183009 0.011663486 0.0036315196 -0.016611429
000170 c0 f7 06 3d db d9 30 bb a8 a4 2d bd de a2 b7 bc
       0.032951117 -0.002698532 -0.042393357 -0.022416528
000180 85 93 0c 3d 40 d3 59 bd db d4 9f bc 78 a4 5c 3d
       0.034320373 -0.05317998 -0.019510677 0.053867787
000190 02 f1 0e 3d 9f 84 b3 3c e9 eb 0f 3b bb c2 8d 3c
       0.03489781 0.021913825 0.0021960682 0.017304769
0001a0 eb 19 7c 3c dd 45 39 3b 11 ea 29 3d a8 8d 66 bc
       0.015387039 0.0028270402 0.04148299 -0.014071859
0001b0 be 8b 08 3d ac 65 5f bd 13 52 24 bd dc 61 f6 bc
       0.033336394 -0.05454032 -0.040117335 -0.03007596
0001c0 d3 54 83 3c 50 a1 51 bd a8 a6 17 3d 8e 69 8a bd
       0.016031658 -0.05117923 0.03702417 -0.06758414
0001d0 0d d8 12 bd 62 9b 50 bd 0a 2e 85 bd ad d8 23 3d
       -0.035850573 -0.050929435 -0.06502922 0.04000156
0001e0 71 83 bc bc c8 c6 5b bd f3 4b d6 bc 3c 38 58 3d
       -0.023011895 -0.05365637 -0.026159262 0.052788004
0001f0 6b a4 5a bd f4 81 0d 3d bd eb 1f bd 77 33 95 bb
       -0.053379457 0.03454776 -0.039043177 -0.004553254
000200 45 4f df 3c 9a c4 ad 3c e7 fa 8e 3c 60 64 80 bc
       0.027259478 0.021211911 0.017453624 -0.015672863
000210 37 38 86 bd 63 5b 04 3d f6 95 25 3d c0 d5 53 3d
       -0.06553691 0.032313716 0.040426217 0.05171752
000220 fb 1b 21 bc 65 c1 82 bd 4b d2 d6 3c af 79 46 bd
       -0.009833331 -0.06384543 0.026223322 -0.04845589
000230 c8 a4 6c bc 71 93 e7 3c 87 a0 24 bd e8 4c 0c 3d
       -0.014443584 0.028268548 -0.040192153 0.03425303
000240 98 81 22 ba a5 5c 7c 3d f8 fe 25 bd 62 a0 10 bd
       -0.00061991205 0.06161179 -0.04052636 -0.035309203
000250 77 6b 03 bb 88 67 89 bc b2 d0 47 bc b4 99 45 3d
       -0.0020053068 -0.016773 -0.012195753 0.048242286
000260 58 e1 49 3c 05 d7 77 bc 1e eb 1a 3c ae 1e f2 3a
       0.012321793 -0.015126948 0.00945547 0.0018472278
000270 36 a6 3d 3c a8 fa 93 bc 22 1e 5e 3d ee 3b 00 3d
       0.011575272 -0.018063858 0.054227956 0.031307153
000280 80 7d 3f 3c 3d 68 f6 bc 0a f4 19 3d d7 ed 8e bd
       0.011687636 -0.030079002 0.03758625 -0.06978958
000290 d4 52 67 3d eb d8 3c 3d 65 14 fc 3c 44 e7 23 3c
       0.056475475 0.046105307 0.030771444 0.0100038685
0002a0 76 10 f7 bc 16 3d a8 3c 94 53 62 3c 7e 78 07 bd
       -0.030159216 0.02053694 0.013813872 -0.033073895
0002b0 51 7c b0 bb 6c e2 b5 3c 2c 87 70 bd 03 e4 6c 3b
       -0.0053859134 0.022202693 -0.05872266 0.0036146648
0002c0 93 c1 36 3d 65 15 07 3d ea c4 c2 3c e0 a7 78 bd
       0.0446182 0.032979388 0.023775537 -0.060706973
0002d0 40 50 fd 3c 97 75 2a 3c b8 a2 38 3d 71 7f b3 3b
       0.030922055 0.010404012 0.045077056 0.0054778387
0002e0 b5 fd 2e 3d 4c c1 3d bd 8e 08 f9 3c c8 55 09 bd
       0.042722423 -0.04632692 0.030399587 -0.033529073
0002f0 41 e3 af bc b4 f5 9a 3c 67 ad 24 3d 85 3e 02 bd
       -0.021470668 0.018915989 0.04020443 -0.031797905
000300 99 02 43 3b 6e 2f 22 bd 28 71 71 3d e5 db ad bc
       0.0029756187 -0.039596014 0.058945805 -0.021223018
000310 27 8a 3a bc e4 59 8f 3c b1 96 16 3d 98 9a f0 3c
       -0.011385477 0.017498918 0.036764804 0.029370591
000320 9a c6 bf 3c 13 d3 4c 3d 0e 11 2e 3d d3 95 8e 3c
       0.02341013 0.050005984 0.042496733 0.017405426
000330 bd 8d 4c 3c c9 08 8b 3d 07 52 55 bc 57 41 2f 3d
       0.012484965 0.06788785 -0.013020045 0.042786922
000340 bf 5f 4a bc b9 88 b9 3c ba 14 21 3d aa 3c 88 bc
       -0.012351929 0.022648202 0.039326407 -0.01663049
000350 70 5b 25 3d 70 eb 91 3c 03 cb c7 3b bb ee 87 bc
       0.040370405 0.01781246 0.006097199 -0.016593328
000360 ba 2d 69 bd 6c ca 88 3c 42 c4 43 bd 79 8b 63 3c
       -0.056928374 0.016698085 -0.047794588 0.013888233
000370 a4 3a 37 bd fc 7a 8a 3d 95 f0 1f 3d 5f 8a 69 bd
       -0.04473366 0.06761739 0.039047796 -0.057016727
000380 99 68 b0 bc 02 06 19 3d 70 7e da 3c 0c 5d 3e 3d
       -0.021534251 0.037359245 0.026671618 0.046475455
000390 47 dc 0e bd 62 0a 17 bd ea ef 8a bd 7b 1c 5b 3d
       -0.03487804 -0.036875136 -0.06784041 0.053493958
0003a0 95 f0 d1 3c ec fa 04 bd c9 aa 66 bb 0e c8 bc 3c
       0.025627414 -0.03246586 -0.003519701 0.023044612
0003b0 eb b5 98 3c e1 17 38 3d bf 91 29 3b 0c 53 be ba
       0.018641433 0.044944648 0.0025874225 -0.00145206
0003c0 3f 07 1e 3d ba e1 68 3c 4c 99 6b 39 1a 31 e3 bc
       0.03858113 0.014213974 0.00022468454 -0.027733374
0003d0 9e fa b8 bc fc 20 0d 3c 0e e6 ef 39 52 0e 18 3d
       -0.022580441 0.008613821 0.00045757036 0.037123032
0003e0 fb af 56 3d 58 45 95 bc 1c 05 b3 3c 78 92 97 bc
       0.05241392 -0.018221542 0.021853022 -0.018502459
0003f0 f2 5a 14 3d b9 ba 80 bd 17 d1 ae 3c 8d 93 45 3d
       0.036219545 -0.062856145 0.021339936 0.04823642

network.4.bias f4 [128]
000000 ce 9c 4b bd 4b 13 87 3c d6 ba 4f bd da 2b 9a bd
       -0.049710087 0.016488692 -0.05071529 -0.07527895
000010 71 e0 b9 bc b7 06 42 3d c1 77 95 3b 76 f1 07 3d
       -0.02269003 0.047369685 0.004561395 0.03318926
000020 f4 e2 37 bd cb ee 99 3d 15 49 05 3d 1a eb 82 3c
       -0.044894174 0.07516249 0.0325404 0.015981246
000030 b1 7e 00 bc 1f ee 4a bc 42 a1 60 3d b9 21 ad 3b
       -0.007842706 -0.012385874 0.054841287 0.005283561
000040 da e2 6a 3d 1b e4 66 bd cf d5 a3 bb 28 98 9d 3d
       0.05734525 -0.056369882 -0.004999853 0.07695037
000050 af 00 6d 3d ef 47 d0 bc 4d e1 1b 3d 5a cc 8b 3c
       0.05786198 -0.025424926 0.03805666 0.017065216
000060 8a 1f bf 3d b4 28 24 bd 77 77 f6 3c e7 8c 1a bd
       0.093321875 -0.04007788 0.030086262 -0.03773203
000070 4a 39 3d bc f4 af 90 3c 83 3d 3c 3d ec 20 60 bd
       -0.011549303 0.017662026 0.0459571 -0.054718897
000080 58 d1 0c bd 6e e4 2e bd bb 0d 02 3d 3d 85 89 bc
       -0.034379333 -0.042698316 0.031751376 -0.016787166
000090 e9 b6 47 3d c3 c6 8b 3d b3 f6 96 3b 9c 53 9b 3d
       0.04875842 0.0682502 0.0046070456 0.075843066
0000a0 93 29 23 bd 50 04 08 bd f6 a0 2e 3c 3a 5f df 3c
       -0.03983457 -0.033207238 0.010658493 0.027267087
0000b0 e6 ae 30 3d 8a 78 de bc 8c 71 01 bd 34 3b 6e 3b
       0.043135546 -0.027157087 -0.031602427 0.0036351206
0000c0 78 d8 3a 3d 5f 93 2c bd 47 8c 89 3d 38 4a d6 bc
       0.045616597 -0.04213273 0.06716209 -0.026158437
0000d0 28 d7 1a bd 1c ec 29 3d 6b 6a 0c 3c fe fd 46 3c
       -0.037802845 0.041484937 0.008570294 0.012145517
0000e0 8f a2 69 bb 04 d6 2f 3d aa 51 e2 bc 4e 23 03 bd
       -0.003564987 0.04292871 -0.027626831 -0.03201609
0000f0 77 46 97 bd ed dc ef bc b3 b4 29 3d 4a fa 51 3c
       -0.07386487 -0.02928015 0.041432094 0.012816021
000100 19 21 2f bd d8 92 5d 3b 5b 79 ba 3a 49 ff bc bd
       -0.042756174 0.003380945 0.001422684 -0.09228379
000110 8e a7 1d bd e6 12 c3 bc c2 f6 80 bb 59 72 3b bc
       -0.03848987 -0.023812722 -0.003935666 -0.011440837
000120 c2 2b 4a bd 8b fb ee ba 07 09 8e bd 6e 8d 3d 3d
       -0.049358137 -0.0018232925 -0.069353156 0.046277456
000130 23 c2 7c bc 1d ae d8 bc a9 5c b9 3c 58 d3 df bc
       -0.015427145 -0.026450211 0.022627192 -0.027322456
000140 eb 13 1b bd a5 ac f4 bc 87 cd 09 3d 6b fb ae 3c
       -0.037860792 -0.02986748 0.03364327 0.02136012
000150 9a 11 64 bc e9 e2 be 3c d7 d0 58 bb 0e cc 70 bd
       -0.013920212 0.023301559 -0.0033083463 -0.05878835
000160 58 98 5c 3d c4 1c 84 bd 76 58 ca bc fd 5a 84 3a
       0.053856224 -0.06450799 -0.024700385 0.0010097917
000170 d4 12 db bc 45 bb d6 bc d5 cd 0c bd cc f2 5b 3c
       -0.026742376 -0.026212344 -0.034375984 0.0134245865
000180 ac 57 e1 bb 6b 3b 47 bd d4 16 ad bc 43 27 c0 3c
       -0.0068769064 -0.04864065 -0.02112905 0.023456221
000190 b5 6c ee bc e6 67 4f bc 16 05 b7 bc fb 30 84 3d
       -0.02910457 -0.012659049 -0.022341292 0.06454655
0001a0 6b 72 b6 bc 0e 2d 33 bc 7a 7f 28 bd 56 81 61 3d
       -0.022271356 -0.010936035 -0.041137196 0.055054985
0001b0 21 70 11 bd 5b 92 09 bd 96 d9 6b 3c 20 d6 72 bd
       -0.035507325 -0.03358684 0.014395138 -0.059286237
0001c0 56 7e 1f 3c 66 d0 0a bd 64 ed 34 3d ed 8a fc bc
       0.009734711 -0.03389015 0.044171706 -0.030827964
0001d0 5f 7e 04 3d 97 23 1d 3d d0 55 45 3c 39 66 09 bd
       0.03234708 0.03836402 0.012044385 -0.033544753
0001e0 db 1c 29 bd ea 3d 48 3c 65 ae a0 3d d4 89 56 bd
       -0.041287284 0.012221793 0.07845763 -0.052377537
0001f0 ff a3 92 3c fd 33 55 3b d9 75 97 3b e0 9d 8a 3d
       0.017900465 0.0032532208 0.004622203 0.067683935

network.6.weight f4 [189, 128]
000000 67 c4 9f bd c7 35 da bd 55 6a 98 bd 39 6e 5f 3d
       -0.07801133 -0.106547885 -0.07442156 0.054548476
000010 cd ba a4 3c a7 7e 05 be 7f ee 60 bd e1 b1 8e bd
       0.020108605 -0.13036595 -0.054914948 -0.069675215
000020 11 30 c8 3c 56 6a d2 3a e3 09 af 3b f4 84 9b bd
       0.024436982 0.0016053419 0.0053417548 -0.07593718
000030 a5 56 94 3d 24 99 5a 3d 76 f8 8a bd f5 a0 92 bd
       0.07243089 0.053368703 -0.067856714 -0.07159606
000040 b8 0e 9d bd 02 b4 9d bb e7 1a b5 bd d1 59 32 3d
       -0.07668823 -0.0048127184 -0.08843022 0.043542687
000050 36 b5 ff bc 07 ab c5 bd 36 37 79 bd cf e3 11 3d
       -0.031214338 -0.096517615 -0.06084367 0.035617646
000060 dd 86 47 bd 4e 53 87 bb 55 e7 ce 3c d0 7f 55 bd
       -0.0487126 -0.0041298037 0.025256792 -0.052123845
000070 a5 c9 05 bd e0 93 ac 3d 16 97 da 3b d4 7e ac 3d
       -0.032663006 0.084266424 0.006670843 0.08422628
000080 e3 89 ad 3d 04 ec b9 bd 6b f6 f4 bb 09 53 c2 3d
       0.084735654 -0.090782195 -0.0074756644 0.09488494
000090 7b 81 38 3d 35 4b 78 bd 1c 5c 9c bd 52 30 42 bc
       0.045045357 -0.060618598 -0.07634756 -0.011852341
0000a0 9a eb c4 bc 11 2a 66 bd 75 df 8c 3d 59 05 c3 bc
       -0.024038125 -0.05619246 0.068785585 -0.02380626
0000b0 c5 99 2d 3a 2e 16 df 3c 0d 74 9e bd f5 a6 7d 3c
       0.000662234 0.027232256 -0.07736979 0.0154817
0000c0 f8 41 96 3d 88 32 3b 3d be a2 a4 3d bf 09 c9 bb
       0.07336801 0.045702487 0.08038853 -0.006135195
0000d0 1a a4 c9 bc 60 58 31 3c 8e 45 8e 3d ef f6 97 3b
       -0.024614383 0.010824293 0.0694686 0.004637591
0000e0 c9 95 13 bd b1 f1 7a 3d 76 9a aa 3c 65 ec 37 3d
       -0.036031518 0.06126565 0.020825606 0.044903178
0000f0 02 90 14 3c 83 ca fb 3b 3a e4 8c bb 03 d1 37 3d
       0.009067537 0.0076840534 -0.0042996677 0.044877063
000100 a5 87 b2 3d a7 5e 85 3d a1 80 80 3d e4 5b a7 bd
       0.087172784 0.06512194 0.06274534 -0.081718236
000110 d1 00 ac 3d 28 0b af bc 1d 9a c3 bd d8 54 b7 bb
       0.08398593 -0.021367624 -0.09550879 -0.005594831
000120 dd d5 d4 bd 23 dc 53 3d 8f be 08 3d 8b a2 21 3d
       -0.10392354 0.05172361 0.033384856 0.039461654
000130 63 f7 3a bd bc 78 18 bd 68 78 9c 3c 45 86 c8 3d
       -0.045646083 -0.037224516 0.019100383 0.09791235
000140 73 94 6b bd 99 c9 52 3d 93 11 d4 3b c8 77 09 bb
       -0.05751462 0.05146179 0.0064718216 -0.0020975936
000150 1b 86 92 bc e1 4b b1 3d 4f 83 38 3c ca 41 f6 bc
       -0.017886212 0.08657051 0.011261775 -0.030060668
000160 f4 5e ce 3b c8 92 af 3d 28 2c 81 3b 1a 9a cc bc
       0.0062979404 0.08572918 0.0039420314 -0.024975825
000170 c5 f7 2a 3d ed 31 7b bd cb 79 ae 3d 22 ce 8a 3d
       0.041740198 -0.06132691 0.08519324 0.06777598
000180 c7 ca fd bb e8 08 5e 3d f7 68 2c bd a2 65 0c bd
       -0.00774512 0.054207712 -0.04209229 -0.034276612
000190 7d 23 2b bc 56 1e 96 3d 7f a6 8f bd 72 c4 6b 3c
       -0.010445473 0.07330005 -0.070141785 0.014390098
0001a0 f0 5f cc bc 72 a0 7d 3d 77 e8 38 3d 77 45 b6 bb
       -0.02494809 0.06192059 0.04514357 -0.00556248
0001b0 02 7c 01 bd 01 a6 87 3d b6 8f b7 bd 0e cf 57 bd
       -0.031612404 0.066234596 -0.089629576 -0.052687697
0001c0 2d 26 64 bb 04 e8 9f 3c 1e 0a c3 bd 3e 5c a7 bd
       -0.0034812794 0.019519813 -0.09523414 -0.08171891
0001d0 a4 40 74 bd c6 1e 18 3c 4a 1b cd 3d f0 d5 13 bd
       -0.05963196 0.009284681 0.100149706 -0.0360927
0001e0 97 92 84 bd 43 7b 7d 3c 13 a9 2c bd 14 75 cc 3d
       -0.06473272 0.015471282 -0.04215343 0.099832684
0001f0 56 3f ab 3c cb aa 52 bc 20 66 2b 3d e4 71 44 3d
       0.020904224 -0.012858103 0.04184544 0.047960177
000200 ff 1b 03 bd 0b fa 7a bd 89 c7 8a 3d 8c 1c e1 3d
       -0.03200912 -0.061273616 0.067763396 0.10991773
000210 cd f9 a5 3d e9 5c e8 bb 5f 3f 7d 3d 82 95 82 bd
       0.08104286 -0.007091154 0.061828014 -0.063761726
000220 38 a6 9a 3d f6 03 aa bd 65 6d 9f 3c 14 54 9d bc
       0.07551235 -0.08301537 0.019461343 -0.01920513
000230 e9 f6 12 bd c9 8d d4 bd 12 d4 46 bd 90 83 9c 3d
       -0.035880003 -0.10378606 -0.04854209 0.07642281
000240 62 aa 53 3c e5 6b 87 3d 96 ab bd 3d b6 8f 4a 3d
       0.01291904 0.06612376 0.09261243 0.04945346
000250 f0 f6 d1 3d 97 cc 96 bc f6 ab a4 bd 8b de 18 bd
       0.10252178 -0.018408103 -0.080406114 -0.03732161
000260 28 f5 af 3c d8 26 11 bd 74 3e a3 3d ee e8 a5 3d
       0.021479204 -0.035437435 0.07970896 0.081010684
000270 92 b9 48 3d 8e 12 43 bd b7 00 7c 3d 09 20 c3 bd
       0.0490051 -0.047625117 0.06152412 -0.095275946
000280 c7 fe 63 3d 52 72 60 3c 6c b3 a3 3c ae 9d 80 bd
       0.055662896 0.013699131 0.019983016 -0.06280075
000290 79 2f dc bd 25 80 82 bb 90 9a e4 bc c7 db 71 3d
       -0.10751242 -0.003982561 -0.027905732 0.059047487
0002a0 8e dc 8d 3d e4 9f d1 3d 8c ea 4d bd 73 61 b1 3d
       0.06926833 0.10235575 -0.05027251 0.08661165
0002b0 cb 45 61 3d fd 66 22 bd 26 d6 03 bb dd 88 43 3d
       0.0549982 -0.039649 -0.0020116656 0.047737945
0002c0 67 2c a6 3d 98 16 11 bd 33 93 12 bd 01 35 b9 bc
       0.08113938 -0.035421938 -0.03578491 -0.022608282
0002d0 44 bf ce 3d e2 95 b9 bd 39 a2 37 bd 14 55 59 bd
       0.10095075 -0.09061791 -0.044832442 -0.053059652
0002e0 83 dd fc bc 21 7f 8a bd c9 6a b5 3c b5 8d 54 bd
       -0.030867344 -0.06762529 0.022145646 -0.051892955
0002f0 b8 53 15 3d 11 f1 c7 bd 6c 87 9e bd 94 6c 90 bd
       0.036456794 -0.09762777 -0.077406734 -0.0705196
000300 d5 9e aa bc 5c cd 9b bc f9 2f bb bd 66 67 06 3d
       -0.02082769 -0.019018821 -0.091400094 0.032813452
000310 4f ac 27 3b 00 21 0e bd 4b 2e 86 bc da 6a 8c 3d
       0.0025584882 -0.03469944 -0.016379496 0.06856318
000320 47 9d 6b bd 4f 5f 73 bc 3e 5a b5 3d da 5b 02 bd
       -0.05752304 -0.014854266 0.08855103 -0.031825878
000330 bf af 83 bc 35 8e 9c 3c c1 be 78 3d 60 2d 65 bd
       -0.016075013 0.019110778 0.060728792 -0.055951476
000340 4f 10 ce bc 84 cd 86 3d f3 b6 7f 3d 6e 29 b9 3d
       -0.02515426 0.06582168 0.062430333 0.09041105
000350 dc 52 8f 3c 26 53 65 3c 9b 3e 89 bb 21 01 2e 3d
       0.017495565 0.013996875 -0.0041883714 0.042481545
000360 f2 79 38 bd d0 c1 5f bd bd ab 35 3d 82 96 ee 3c
       -0.04503817 -0.054628193 0.044353236 0.029124502
000370 77 d5 18 3d 3a b7 11 3d 79 4e 69 3d 09 69 2f 3d
       0.03731295 0.03557513 0.056959603 0.04282478
000380 e4 9a d7 bd 40 b3 70 3d fa 83 c5 bd 7b 10 ce bc
       -0.1052759 0.058764696 -0.09644313 -0.025154343
000390 ef 83 25 bd fe 21 cd 3d af 87 50 bd 3f f4 fc 3c
       -0.040409025 0.10016249 -0.050910648 0.030878184
0003a0 b6 31 b0 bb 8c 9c 8c 3d 0f 16 f2 3b 3c ee 37 3d
       -0.0053770198 0.068657964 0.0073878835 0.044904932
0003b0 73 cc c8 3d 46 c8 ae 3d 91 83 a5 3c 83 7f 2d 3d
       0.098046206 0.08534293 0.020204337 0.042357933
0003c0 5a 23 b4 bd d2 46 42 bc 84 f1 d0 bc 08 e9 03 3a
       -0.08795805 -0.011857705 -0.025505789 0.0005031978
0003d0 a0 b9 0c bd 9f 78 c6 3d 2d 8c 45 bd ff 1a e1 bc
       -0.034356713 0.096909754 -0.048229385 -0.027478693
0003e0 14 41 36 bd f5 35 98 3d b5 11 35 3d 7e 72 ef 3d
       -0.044495657 0.074321665 0.04420634 0.116917595
0003f0 c7 75 39 bd 22 db 37 bb f7 a0 7b bd 3c df 71 3d
       -0.045278337 -0.0028054197 -0.061432805 0.059050784

network.6.bias f4 [189]
000000 a2 86 37 3d 86 5e df 3b 99 f1 92 bc 4e 83 a4 ba
       0.04480613 0.006816688 -0.017937468 -0.0012551339
000010 aa f2 29 3c 74 a7 67 3c be c7 5a 3d 5e 60 97 bd
       0.010372797 0.014139045 0.053413145 -0.073914275
000020 83 eb e9 bc 72 3a 8d bc c0 0b dc bc df c6 07 bd
       -0.028554684 -0.017239783 -0.026861072 -0.033148643
000030 8e 09 ea 3c a0 e1 d3 3c b2 ca 65 bd da 1a 6b bb
       0.02856901 0.025864422 -0.05610151 -0.003587416
000040 48 0c f0 3c e7 64 91 bc a5 71 2c 3d c4 f3 ef bd
       0.029302731 -0.01774831 0.042100567 -0.117164165
000050 e3 7d 2c bd 87 68 61 3d 92 c9 0b bd 8c 5d 54 3b
       -0.042112242 0.055031326 -0.03412778 0.003240439
000060 f5 50 30 3c 74 1f e8 bc 6b d1 26 bd 24 a3 57 bd
       0.010761489 -0.02833531 -0.04072706 -0.052645817
000070 03 b5 cd bb 12 39 01 be 6a 64 ab bd 4b 0d 6b 3c
       -0.006277682 -0.12619427 -0.08368762 0.014346431
000080 2b 41 0e 3d 2c ca 96 3c 76 00 ca bd 4d 93 49 bd
       0.034730118 0.01840695 -0.09863369 -0.049212743
000090 06 e0 69 bd 44 05 20 3d c3 96 4d 3c 1d 97 69 bd
       -0.05709841 0.03906752 0.012548151 -0.05702888
0000a0 c2 52 b5 bd be bc cb 3b c5 8c 07 3d d5 41 aa bd
       -0.088536754 0.006217568 0.033093233 -0.08313338
0000b0 f3 de 1c 3d a5 93 3f bd c1 3e 74 bd e3 ac f2 bd
       0.03829856 -0.046771664 -0.05963016 -0.11849382
0000c0 77 99 93 bd c0 76 8c bc e0 ba 2d 3d 93 53 94 bb
       -0.072070055 -0.017146468 0.042414546 -0.0045265644
0000d0 e0 4c 99 bd c6 4f 83 bd f6 e8 af 3c 66 bd a5 bd
       -0.07485366 -0.064117 0.02147339 -0.080927655
0000e0 00 92 8e bd 11 fc bf 3c f1 64 fa 3c 6c 67 01 bd
       -0.06961441 0.023435624 0.03056571 -0.03159277
0000f0 cc 49 28 3d 80 c3 46 3d c4 57 b9 bd 08 87 80 bc
       0.041086003 0.048526287 -0.09049943 -0.015689388
000100 0c 5d 00 3c 7a f8 04 3c a2 1c b9 bc 6a 16 9f bd
       0.007834684 0.008115882 -0.022596661 -0.07767947
000110 88 5f cc bd cc 05 47 bd 4c 9e 9a bd 6e 70 8a bd
       -0.09979159 -0.048589513 -0.07549724 -0.067597255
000120 88 6c 6d 3d dd a2 3c 3c 8a 46 84 bd ab 78 76 3d
       0.05796483 0.011513439 -0.06458767 0.06017367
000130 45 be 14 bd 0e fb 24 3d cc b4 3a bd 35 6b 82 bc
       -0.036314268 0.040278487 -0.045582578 -0.01592026
000140 20 f1 7f bd 06 36 92 3d 83 16 a0 bd 3c c4 ac bd
       -0.062485814 0.071392104 -0.07816794 -0.08435866
000150 9d 9e b5 3d 8e 1c cb bd 9b b7 81 bc cb 8f 92 bb
       0.08868144 -0.09917556 -0.01583462 -0.004472708
000160 25 f4 83 3d 98 9d 10 be 4d 5c a7 3c c2 e1 87 bc
       0.06443051 -0.14122617 0.020429755 -0.016587142
000170 1c 93 40 bd c3 fe db 3d 2f 9a 11 bd bd 7f 28 3c
       -0.047015294 0.10741951 -0.03554743 0.010284361
000180 96 ea 3a 3d 8d 16 55 bd 9b 85 c9 3b 01 40 bc bc
       0.045633875 -0.05202346 0.00614996 -0.022979738
000190 8f 48 de bd 77 d3 36 bc 01 8f 94 bd 71 ce 69 bd
       -0.10853683 -0.011158816 -0.07253838 -0.057081643
0001a0 08 d5 5b bc 8c 4f 6f bc f8 fe 18 3d 6f 5e 32 3d
       -0.01341749 -0.014606368 0.037352532 0.04354709
0001b0 cc db 71 bc 4a 34 aa bd fc f5 8f bd e2 9c e8 3b
       -0.014761876 -0.083107546 -0.0702934 0.00709878
0001c0 32 0a a7 bd 97 46 04 bd 17 d0 fc 3a 35 1b 73 bd
       -0.081562415 -0.032293882 0.001928809 -0.05935212
0001d0 34 5e ca 3c 37 a3 5a bc 98 13 f5 bc 26 16 84 3c
       0.024703123 -0.0133445775 -0.02991657 0.016123842
0001e0 73 bd ef bc 82 35 a7 bc 6b 91 72 bd ca d3 c7 3c
       -0.029265141 -0.020411257 -0.059220713 0.024392981
0001f0 82 93 11 ba a6 98 93 bc 59 b3 c1 bc ef c3 b4 bd
       -0.00055532914 -0.018017124 -0.02364509 -0.08826434
000200 f7 96 ce bb 30 98 69 3d 2d ef 7e bc 41 58 8c 3d
       -0.0063046175 0.057029903 -0.015559954 0.068527706
000210 02 91 9a 3d 8f 1b 91 bd 58 5e ed bd 81 91 86 3d
       0.07547189 -0.070853345 -0.1159026 0.065707214
000220 ba ba b2 bd aa 4b a5 bc 39 98 58 3d ac 80 16 3d
       -0.087270215 -0.020177681 0.052879546 0.036743805
000230 5a 91 ea 3c f5 55 d2 3d 40 17 38 3d 24 7e de bd
       0.028633762 0.10270301 0.044944048 -0.10863903
000240 04 19 08 3c 5d fc ec 3b 3b 21 f0 bd e3 2f 8f 3a
       0.008306745 0.0072322325 -0.11725088 0.0010924306
000250 be 2c 68 3c ea 2e a5 bd 94 ce 96 bc d9 9c 98 bd
       0.014170824 -0.08065589 -0.018409051 -0.07451791
000260 f1 f1 8c 3c 62 a8 3a 3d e0 0a eb 3c 6c 91 ea bc
       0.01720521 0.04557074 0.028691709 -0.028633796
000270 2f 1c 31 bd 81 34 1b bc 1a fb e3 bd a7 5f 1c bd
       -0.04323977 -0.009472967 -0.11131878 -0.03817716
000280 78 ac 8b bd 51 0d 75 bc 9c bb c9 bd 35 a7 9f bd
       -0.06820005 -0.014956788 -0.09850237 -0.07795564
000290 84 c0 3a 3d 17 9c c2 bd 89 66 2b 3d c8 7e 6b bd
       0.045593753 -0.09502428 0.041845832 -0.057493955
0002a0 8a 5f 21 ba 1e b1 36 bd cb 19 30 bd c4 63 13 3b
       -0.0006155899 -0.044602506 -0.042993348 0.0022489885
0002b0 02 d3 a3 3c 5d da 61 3d a2 48 01 bc bb 19 da bc
       0.019998077 0.055139888 -0.007890852 -0.026623597
0002c0 1b ab 59 3d 01 19 4c bd 49 98 8a 3c 65 41 d8 bc
       0.053141695 -0.049828533 0.016918318 -0.02639837
0002d0 73 78 c8 bc d6 c4 9c bc ab e7 1e bc ce 47 53 3d
       -0.024471497 -0.019136827 -0.009698789 0.05158215
0002e0 30 a1 5e bd 8c a2 3f bd 04 ae 0e bd 42 02 11 bc
       -0.05435294 -0.046785876 -0.034833923 -0.008850636
0002f0 c9 32 78 bd
       -0.060595307
